chess_cnn_model.pth (torch, 166816 bytes, 7 tensors)

conv1.weight f4 [32, 20, 3, 3]
0	0xc0026c8c	-2.0378752
1	0x3ffc1f24	1.9697003
2	0xbec83fc5	-0.39111152
3	0xbfdcdcc9	-1.7254878
4	0x3e7c27e1	0.24624588
5	0x402ccde3	2.7000663
6	0xbff0992b	-1.8796743
7	0xbffeebf9	-1.9915763
8	0xbfd94f7e	-1.6977384
9	0x3fae0f5f	1.3598441
10	0x3f556dc4	0.83370614
11	0xbfd6b6e3	-1.6774563
12	0xbfee9032	-1.8637755
13	0xc088bd8b	-4.2731376
14	0x3ebfb198	0.3744018
15	0xbe231b3a	-0.15928355
16	0xc0b4991b	-5.6436896
17	0x3f03a689	0.5142599
18	0x3f88577f	1.0651702
19	0xc0341468	-2.8137455
20	0x3fe07a6e	1.7537363
21	0x3fa78584	1.3087621
22	0x403be7ae	2.9360156
23	0x3ed6b4fb	0.41934952
24	0xc01f0062	-2.4843984
25	0x3e731a5c	0.23740524
26	0xbfe899eb	-1.8171972
27	0xc027834b	-2.6173885
28	0xbf8a4ffd	-1.080566
29	0xc0988040	-4.7656555
30	0x3f9c9f4f	1.2236117
31	0x3f9a4da6	1.2054946
32	0xc0b9e594	-5.8092747
33	0xbee7264d	-0.4514641
34	0xc0154116	-2.3320975
35	0x40797d5a	3.8982759
36	0xc0ce4b1a	-6.4466677
37	0xc038650b	-2.8811672
38	0x406d9d73	3.712735
39	0x402fa818	2.7446346
40	0x4002677c	2.0375662
41	0x3fa363e0	1.2764854
42	0xbfeebaa6	-1.865071
43	0x3faeb7fe	1.36499
44	0x3f7bbbda	0.98333514
45	0xc0df39c6	-6.9758024
46	0xc00a6b40	-2.162796
47	0xc0969d96	-4.7067366
48	0x3f981eec	1.1884437
49	0x3eed7d22	0.4638453
50	0xbef5199a	-0.47871095
51	0x3f99f861	1.2028924
52	0xbf9f66dc	-1.2453265
53	0xbf7fca53	-0.999181
54	0xbfb8cfc8	-1.443841
55	0x3fa529cb	1.2903379
56	0x3f8f747f	1.1207427
57	0xbcce2c44	-0.025167592
58	0x3e220bbb	0.15824787
59	0xbfa1c478	-1.2638083
60	0xbf837cb3	-1.027243
61	0x3f9ee41b	1.2413362
62	0x40156f8c	2.3349333
63	0xbfba6aa8	-1.4563799
64	0xc02b6ffe	-2.6787105
65	0xbfa75e68	-1.3075686
66	0xbfeb5f6d	-1.8388497
67	0x3fbfd43c	1.4986644
68	0x3f16d3ff	0.5891723
69	0xc037c8a1	-2.8716204
70	0xc0bc77f2	-5.889642
71	0x400299db	2.0406406
72	0xc014a245	-2.3224041
73	0xc0dfe90c	-6.997198
74	0x3f79223d	0.9731787
75	0x40007b34	2.0075197
76	0xc03f63aa	-2.990458
77	0xbfc10a43	-1.5081257
78	0x3efc2aa0	0.4925127
79	0x3f305e80	0.68894196
80	0x3f6d0f6b	0.9260165
81	0xbf987cbc	-1.1913066
82	0x3fe72ed7	1.8061169
83	0x3f3692e2	0.71317875
84	0xc088045d	-4.2505326
85	0xbf69698d	-0.9117668
86	0xbf0020b4	-0.500499
87	0x40ad3b7a	5.4135103
88	0xc0069875	-2.1030552
89	0x3f430a2a	0.76187384
90	0x3dceb678	0.10093397
91	0x3fdecdb5	1.7406527
92	0xc04552e6	-3.0831847
93	0xbe9c0120	-0.30469608
94	0xc046fa73	-3.1090362
95	0xbfccef14	-1.6010461
96	0xbfe0bf30	-1.7558346
97	0xc09bab4e	-4.864661
98	0xc0145c54	-2.3181353
99	0x405fdfed	3.4980423
100	0x3fc1f88c	1.5153975
101	0x3fd3e2bc	1.6553569
102	0x3f82a54a	1.0206692
103	0x3fa383a2	1.2774546
104	0xc01eeefd	-2.4833367
105	0xbff3e875	-1.9055315
106	0x400d0e79	2.2040083
107	0x3f835d66	1.0262878
108	0xbf40bc37	-0.75287193
109	0xbf23d650	-0.6399889
110	0x3ecbd565	0.39811245
111	0xbf1c62ef	-0.6108846
112	0xbeed8a0b	-0.4639438
113	0x3dcdea5a	0.10054465
114	0x3e87f828	0.26556516
115	0xbeab5479	-0.33462885
116	0x3e4314d3	0.19050913
117	0x3ef15121	0.4713221
118	0x3eb04b9c	0.34432685
119	0x3ea1a41e	0.31570524
120	0xbf3e7f55	-0.74413043
121	0xbf183820	-0.5946064
122	0xbf23e945	-0.64027816
123	0xbdc01e78	-0.093808115
124	0x3d9cdede	0.07659696
125	0x3ee2cea1	0.4429827
126	0xbf14d524	-0.58137727
127	0xbf461251	-0.773717
128	0xbec27740	-0.37981606
129	0x3f571b94	0.84026456
130	0x3f38050a	0.7188269
131	0xbed8c464	-0.42337334
132	0x3ea1292e	0.3147673
133	0xbf032b2c	-0.5123775
134	0xbfbfbd49	-1.497964
135	0xbe8246db	-0.25444683
136	0xbe51d869	-0.2049271
137	0x3e32aab3	0.17447929
138	0x3f695bd3	0.9115574
139	0x3f77e69b	0.9683625
140	0xbccff8d9	-0.025387214
141	0xbeaa59a4	-0.33271515
142	0xbf565f6f	-0.8373937
143	0xbfcc680e	-1.5969255
144	0xbee26fa8	-0.44225812
145	0x3f281bb3	0.65667266
146	0x3f88775c	1.0661426
147	0xbfc48a02	-1.5354617
148	0xbe073b78	-0.1320628
149	0x3df63bee	0.120231494
150	0xc0048937	-2.070875
151	0xbe65be28	-0.2243582
152	0x3f467ca9	0.77533966
153	0x4038a850	2.885273
154	0x3ff911de	1.9458578
155	0x3e8039e4	0.25044167
156	0xbe870c24	-0.2637645
157	0x403b57bb	2.9272296
158	0xbf9c6664	-1.2218747
159	0x3f0bea92	0.546548
160	0xbf198e88	-0.5998311
161	0x4081f861	4.0615697
162	0x3ee14a60	0.44002056
163	0xbf861158	-1.0474043
164	0xbe12d8bd	-0.14340492
165	0x3db18403	0.08667757
166	0x3ef7fe8d	0.48436394
167	0x3f681d77	0.9066996
168	0x3c095cbc	0.008383926
169	0xbf794c89	-0.9738241
170	0xbdd881b9	-0.10571618
171	0x3e2630e0	0.16229582
172	0x3eb73e5b	0.3578976
173	0x3edfebd8	0.43734622
174	0xbfff59d7	-1.9949292
175	0x3cb4ed89	0.022085922
176	0xbf5b1c9e	-0.8559054
177	0x3f151c9d	0.58246785
178	0xbe980844	-0.29693806
179	0x3d01a7ef	0.031654295
180	0xbfd924e7	-1.6964387
181	0x3c10c21a	0.00883534
182	0xc07b0b9e	-3.922584
183	0xbfba7300	-1.4566345
184	0xbfea9c26	-1.8328903
185	0x3f364a46	0.7120708
186	0x3e5c8262	0.21534112
187	0xbf8919df	-1.071102
188	0xc094a649	-4.6452985
189	0xbfeb40de	-1.8379171
190	0x3f4f1293	0.80887717
191	0x3e698c3a	0.22807398
192	0xc0a18437	-5.0473895
193	0x3f9479bd	1.1599652
194	0xbfced1fa	-1.615783
195	0xc0039cbd	-2.0564415
196	0xbf9a6c9a	-1.2064393
197	0x3ff976cb	1.9489378
198	0xc0063a6a	-2.0973153
199	0x3e80513c	0.25061977
200	0xbfdea171	-1.7393018
201	0x3fe6b9b4	1.8025422
202	0x3fd63e27	1.6737717
203	0x3f2342e3	0.63773936
204	0xc0cd4858	-6.415081
205	0x3f1758b3	0.5911972
206	0x3f8e3680	1.1110382
207	0x3e23b8b0	0.15988421
208	0x3df8f545	0.121561565
209	0x3f97aa6d	1.1848885
210	0xbf94a4f2	-1.1612837
211	0xbe31ca4b	-0.17362325
212	0xc081a682	-4.0515757
213	0xc05af982	-3.4214787
214	0xc0af1877	-5.4717364
215	0xbfa6aade	-1.3020895
216	0xbf82c338	-1.0215826
217	0xc03f5e12	-2.9901166
218	0xbe3c738b	-0.18403451
219	0x3e7daeec	0.24773759
220	0x3fb548ca	1.4162838
221	0x3fcc2356	1.5948284
222	0xbf3834a0	-0.719553
223	0xbf0d5f41	-0.5522347
224	0x3f36c170	0.7138891
225	0xc017d462	-2.3723378
226	0x3f915937	1.1355351
227	0xbfdf480e	-1.7443864
228	0xc010d12a	-2.2627664
229	0xbed3eaee	-0.41390175
230	0xbf27cd13	-0.65547293
231	0x40181777	2.3764322
232	0xc02eeac3	-2.7330787
233	0x400f6fcb	2.2411983
234	0xbfc2422e	-1.5176446
235	0xc004f8c7	-2.0776842
236	0xc0dfe970	-6.997246
237	0xc0a6cf59	-5.212811
238	0x3edde7be	0.43340868
239	0xc04e452d	-3.2229722
240	0xc0b6fb84	-5.7182026
241	0x3f7ee6f5	0.9957116
242	0xc09fe36d	-4.996512
243	0x3dab2ece	0.08358537
244	0x400011db	2.0010898
245	0xc0b44af3	-5.634149
246	0x4009e447	2.154558
247	0x3e22b1fd	0.1588821
248	0x3e9cbb75	0.30611768
249	0xc007edad	-2.1238816
250	0xc013f513	-2.3118331
251	0x407e08a1	3.9692767
252	0xc0a67834	-5.202173
253	0x4049bb12	3.1520429
254	0xc069cbc9	-3.653063
255	0x3f5eb1a2	0.86989796

conv1.bias f4 [32]
0	0xbfada514	-1.3566003
1	0xc02065a2	-2.5062032
2	0xc035f160	-2.8428574
3	0xbf9d4595	-1.228686
4	0xc027a48e	-2.6194186
5	0xbfd68fdd	-1.6762654
6	0xbf2d83db	-0.6777932
7	0xc049ebbf	-3.1550138
8	0xbfb80057	-1.4375104
9	0xbf6258a6	-0.88416517
10	0xbfb67ce6	-1.4256866
11	0xc0264199	-2.5977538
12	0xc011d09d	-2.2783577
13	0xbf1395f0	-0.5765066
14	0xbf5c3f28	-0.8603387
15	0xc029dc5e	-2.6540751
16	0xbfb90f85	-1.4457861
17	0xc0586efc	-3.381774
18	0xc0209f59	-2.5097258
19	0xbffaae1b	-1.9584383
20	0xbea63a7a	-0.3246649
21	0xc0097eea	-2.1483712
22	0xbfddfe7a	-1.7343285
23	0xbfe26eff	-1.7690123
24	0x3da311da	0.07962389
25	0xc003a40f	-2.0568883
26	0xbfe90dd5	-1.8207346
27	0xbfed55e1	-1.8541833
28	0xbf93e08f	-1.1552905
29	0xc0411faf	-3.0175588
30	0xc020e0c1	-2.513718
31	0xbf8fb9b2	-1.1228545

conv2.weight f4 [64, 32, 3, 3]
0	0x3ea3d142	0.3199559
1	0xbf215c4d	-0.63031465
2	0xbc8756ad	-0.016520822
3	0xbe25558a	-0.16145912
4	0x3f345871	0.7044745
5	0x3f77aa00	0.96743774
6	0x3f396c4c	0.7243087
7	0xbf58eb88	-0.8473439
8	0x3e7da7eb	0.24771087
9	0x3f051f2d	0.52000695
10	0x3f9db56c	1.232099
11	0xc041f432	-3.0305295
12	0xbfda2da5	-1.704518
13	0x3f08f2d5	0.5349553
14	0xbe91f5e2	-0.28507906
15	0xbf438325	-0.76371986
16	0x3e075f4c	0.13219947
17	0xba24f57b	-0.0006292683
18	0x3f0ab114	0.5417645
19	0x3fcaaf7d	1.5834805
20	0x3d9b5643	0.075848125
21	0xbf42a369	-0.76030594
22	0x3dfc94ff	0.12333106
23	0x3f1e3417	0.6179823
24	0xbe841d09	-0.25803402
25	0x3f37ec8a	0.71845305
26	0xbfa9ca4e	-1.3264863
27	0x3e87fd55	0.26560465
28	0x3f4b3ef7	0.7939295
29	0x3e32a1ea	0.17444578
30	0xbf16cc03	-0.5890505
31	0xbe4bdb2a	-0.19907823
32	0x3e3b447a	0.1828784
33	0x3f3871d9	0.7204872
34	0x3ebea7b9	0.37237337
35	0x3f41543d	0.7551916
36	0x3ecfacc1	0.40561488
37	0xbeb37b03	-0.35054788
38	0xbf5882ed	-0.84574777
39	0xbca5afc9	-0.020225422
40	0xbf80625b	-1.0030016
41	0xbf5c1c7b	-0.8598096
42	0xbf5e5398	-0.86846304
43	0x3ba30879	0.0049753753
44	0x3f3b653f	0.73201364
45	0xbc8fa024	-0.017532416
46	0xbef1be99	-0.47215727
47	0x3ea075f2	0.31339985
48	0xbfb4e6ec	-1.4132972
49	0xbf158fa7	-0.5842232
50	0xbe3d75c1	-0.18501951
51	0xbe0808f6	-0.13284668
52	0x3e8bec12	0.27328545
53	0x3f6af66d	0.91782266
54	0x3f19c517	0.6006636
55	0xbf8b8520	-1.0900002
56	0xbf9b6a64	-1.2141843
57	0xbf3d7b73	-0.74016494
58	0x3f178be9	0.5919786
59	0xbf425fa7	-0.75927204
60	0xbf11f044	-0.5700724
61	0x3ec81c36	0.39084023
62	0x3f47c729	0.7803827
63	0x3e8bc31e	0.272973
64	0xbf91f3d2	-1.1402533
65	0x3ecb2187	0.39674017
66	0x3eebae00	0.4603119
67	0xbe6bf54b	-0.2304279
68	0x3fabb5ce	1.3414857
69	0xbf8a4352	-1.0801795
70	0xbfafdff7	-1.3740224
71	0xbf0dddd7	-0.55416626
72	0xbf84226d	-1.0323006
73	0xbf967c27	-1.1756638
74	0xbcaa44ed	-0.02078482
75	0x3eb88eeb	0.36046538
76	0xbeacd753	-0.3375803
77	0x3f3f5fe8	0.74755716
78	0x3f706c9d	0.9391573
79	0xbeda5884	-0.42645657
80	0xbefb3e78	-0.49071097
81	0x3f2a34d8	0.66486883
82	0xbf00ab31	-0.5026122
83	0xbf9caf42	-1.2240984
84	0x3e994b95	0.29940477
85	0x3da81a64	0.082081586
86	0xbf9bbb52	-1.2166541
87	0xbe203706	-0.1564599
88	0xbe263ed1	-0.162349
89	0x3f0a9ffa	0.54150355
90	0x3e673b80	0.22581291
91	0xbf970695	-1.1798884
92	0xbf0ad0d7	-0.54224914
93	0x3f712a6f	0.94205374
94	0xbf2355f5	-0.63803035
95	0x3f142614	0.578706
96	0x3f6536d1	0.8953677
97	0x3f33f533	0.7029602
98	0x3f0caedd	0.5495432
99	0xbdaa2c6a	-0.083092526
100	0xbe7139df	-0.23557232
101	0xbf93d96b	-1.1550726
102	0xbdd70595	-0.104991116
103	0xbf3099d0	-0.689847
104	0xbf07bd5a	-0.530233
105	0x3fa734df	1.306301
106	0xbe622b9e	-0.22086951
107	0x3e23b8e8	0.15988505
108	0xbf09a48e	-0.53766716
109	0xbeff8b9e	-0.49911207
110	0xbeee97d2	-0.46600205
111	0xbd836e8f	-0.06417572
112	0x3f5d51e2	0.8645307
113	0xbf6efd2b	-0.93355054
114	0xbf5a7e78	-0.85349226
115	0xbe87f66c	-0.26555192
116	0x3f192490	0.59821415
117	0xbf73796f	-0.9510717
118	0xbdb5d77f	-0.08878993
119	0xbe86cc45	-0.2632772
120	0x3e7575c7	0.2397071
121	0xbe4662e9	-0.19373669
122	0xbe80cbc3	-0.25155458
123	0xbf102620	-0.56308174
124	0xbd80cd2a	-0.06289132
125	0x3f9b821c	1.2149081
126	0xbedebb59	-0.4350231
127	0xbda43809	-0.080185
128	0xbf81d3f8	-1.0142813
129	0xbe925d60	-0.28586864
130	0x3e0b60ea	0.13611189
131	0x3ea709f9	0.32624796
132	0x3f763955	0.9618123
133	0xbe81ce16	-0.25352544
134	0x3f4416c1	0.7659722
135	0x3e102c84	0.14079481
136	0x3e8eb1a2	0.27869898
137	0x3f077062	0.5290586
138	0x3ec8dd67	0.39231417
139	0x3ed4f602	0.4159394
140	0x3f92daee	1.1473062
141	0xbf2761f9	-0.6538387
142	0x3ff4ebe2	1.9134486
143	0xbf875b29	-1.0574695
144	0xbf01534c	-0.50517726
145	0x3ef3c0fd	0.47608176
146	0xbf3b292b	-0.7310969
147	0xbeb2c677	-0.34917042
148	0xbea23e2e	-0.31688064
149	0xbe1710c5	-0.14752491
150	0x3f4b8ffc	0.7951658
151	0xbdfc197b	-0.123095475
152	0x3ede556c	0.43424547
153	0xbb36defc	-0.0027903905
154	0xbf42e764	-0.76134324
155	0xbdfd7816	-0.1237642
156	0xbfa57cc7	-1.2928704
157	0xbe606253	-0.21912508
158	0x3f945201	1.1587526
159	0x3fbd07cb	1.4768003
160	0xbf0c1517	-0.5471968
161	0xbefbc142	-0.49170882
162	0xbf42a34c	-0.7603042
163	0x3f25bb13	0.6473858
164	0xbf141142	-0.57838833
165	0x3e14f299	0.14545669
166	0xbcb8b839	-0.022548782
167	0xbfb3b20b	-1.4038709
168	0xbebe594f	-0.37177512
169	0x3e357308	0.17719662
170	0xc015c354	-2.340047
171	0xbf823a57	-1.0174054
172	0xbe07340d	-0.1320345
173	0xbe77ddce	-0.24205706
174	0xbfbc90c4	-1.4731679
175	0xbfa908b2	-1.3205779
176	0xbf3346ae	-0.70029724
177	0x3ea9a1a0	0.33131123
178	0xbed3cddd	-0.41368
179	0xbfb54795	-1.416247
180	0x3eb8158c	0.3595394
181	0xbf139963	-0.57655925
182	0xbf550389	-0.8320852
183	0xbf1aa7f5	-0.6041253
184	0x3dd44dc7	0.10366397
185	0x3f159742	0.58433926
186	0x3eee9da0	0.46604633
187	0xbe74a31b	-0.23890345
188	0x3f506a5f	0.8141231
189	0x3f852b42	1.0403826
190	0xbf4d9190	-0.80300236
191	0xbe6fb033	-0.23407058
192	0x3da816f0	0.082075
193	0x3ee6b056	0.4505641
194	0x3f8afef9	1.0859061
195	0xbed7104f	-0.4200463
196	0x3e392a41	0.18082525
197	0xbf104895	-0.5636075
198	0x3f4f4b51	0.809743
199	0xbe221d55	-0.15831502
200	0x3e2f54b2	0.17122152
201	0x3f28f53f	0.65999216
202	0x3f07c103	0.5302889
203	0xbf511f50	-0.81688404
204	0x3f41784c	0.75574183
205	0x3f8e01e9	1.1094333
206	0x3ec3d216	0.3824622
207	0xbed1e403	-0.40994272
208	0x3f897fdf	1.0742148
209	0x3e9ac0b1	0.30225137
210	0x3f5340a2	0.82520497
211	0xbf0d7aba	-0.5526539
212	0x3ebfa420	0.37429905
213	0xbe2bb316	-0.16767535
214	0xbf5d5c83	-0.86469287
215	0x3ef0b9ef	0.47016856
216	0xbf04d23c	-0.5188329
217	0xbf6dff05	-0.92967254
218	0x3eae38f7	0.34027836
219	0xbf0090f6	-0.5022119
220	0x3de08d1f	0.10964417
221	0x3e21d7eb	0.15805022
222	0x3f0803d0	0.5313082
223	0x3e722c10	0.23649621
224	0x3f2b4a52	0.6691028
225	0xbf09a802	-0.53771985
226	0xbee3b9fe	-0.44477838
227	0x3eb54294	0.35402358
228	0xbf547b9b	-0.83001107
229	0xbe279ee4	-0.16369206
230	0x3e9f6ed4	0.31139243
231	0xbfc6ee85	-1.554154
232	0xbdbf4207	-0.093387656
233	0xbf4bc6b6	-0.79600084
234	0x3f32e555	0.6988118
235	0xbec5bfe9	-0.38622978
236	0xbf1967f1	-0.59924227
237	0xbe754471	-0.2395189
238	0xbf6c43fc	-0.92291236
239	0xbfa7f631	-1.3122007
240	0xbe286338	-0.16444099
241	0x3f74eb1e	0.9567126
242	0x3e189db4	0.14903909
243	0x3f8d6e48	1.104928
244	0xbf89e909	-1.0774242
245	0xbeb51f47	-0.35375425
246	0x3f6ab81c	0.9168718
247	0xbf838917	-1.0276212
248	0x3fb708e1	1.4299585
249	0xbfa70ebb	-1.305137
250	0xbf7bc5de	-0.98348796
251	0x3f40af4d	0.7526749
252	0xbe81d565	-0.2535812
253	0xbfdb625c	-1.7139392
254	0x3e0bcc4b	0.1365215
255	0x3f36f51d	0.71467763

conv2.bias f4 [64]
0	0xbf59e83b	-0.8511998
1	0xbea00bf1	-0.3125911
2	0xbeafc2e5	-0.3432838
3	0xbfedbf12	-1.8573935
4	0xbf25328f	-0.6453027
5	0xbe9009e1	-0.28132537
6	0xbeca71b7	-0.39539883
7	0xbf50c9bb	-0.81557816
8	0xbef99d4e	-0.48752826
9	0xbe4148e2	-0.18875459
10	0xbed85de5	-0.42259136
11	0xbf51772e	-0.8182248
12	0xbfea710b	-1.8315748
13	0xbf9e36f1	-1.2360517
14	0xbedd85e5	-0.43266216
15	0xbf3fca37	-0.7491793
16	0xbe1017f0	-0.14071631
17	0xbfb1bc84	-1.3885655
18	0xbf73144a	-0.94952834
19	0xc0841a9b	-4.1282477
20	0xbf327c68	-0.6972108
21	0xbfe8c466	-1.8184936
22	0xbffa5de5	-1.9559904
23	0xbf441128	-0.7658868
24	0xbeebd28c	-0.46059072
25	0xbfcd9430	-1.6060848
26	0xc0244707	-2.5668352
27	0xbee2947d	-0.44253913
28	0xbf7f4a67	-0.99722904
29	0xc045c7c3	-3.0903175
30	0xbf1248c9	-0.5714231
31	0xbf44b45a	-0.76837695
32	0xc005fb2d	-2.0934556
33	0xbeb5aba8	-0.35482526
34	0xbf0c4a5b	-0.5480096
35	0x3d7a2fb6	0.061080657
36	0xbec10062	-0.37695605
37	0xbe212345	-0.1573611
38	0xbfb3585f	-1.4011344
39	0xc0427c51	-3.0388377
40	0xbfceeb6d	-1.6165596
41	0xbf0c615f	-0.54836076
42	0xbf26884b	-0.65051717
43	0xc0340d8f	-2.8133276
44	0xbfe0ca82	-1.75618
45	0xbea9da8b	-0.33174548
46	0xbeea676f	-0.4578204
47	0xbe984d40	-0.29746437
48	0xbebc1b74	-0.36739695
49	0xbea2b7f8	-0.31780982
50	0xbfe891ae	-1.8169458
51	0xbfa18227	-1.2617844
52	0xbfa77f45	-1.3085715
53	0xc023a584	-2.5569773
54	0xbee02168	-0.43775487
55	0xbe6ca52b	-0.23109882
56	0xbee874c5	-0.45401588
57	0xbe2ce3c9	-0.16883768
58	0xc034efdf	-2.8271406
59	0xc00713d4	-2.1105852
60	0xbf150bba	-0.5822102
61	0xc013d922	-2.3101277
62	0xc03287ac	-2.7895308
63	0xbf9fa21f	-1.247135

fc1.weight f4 [64, 257]
0	0xbfb64c0f	-1.4241961
1	0xbfa367c8	-1.2766047
2	0xbf062ebe	-0.5241507
3	0xbf32160d	-0.69564897
4	0xbd789c9e	-0.060696237
5	0x3cb54f7c	0.022132628
6	0x3d138b70	0.03602165
7	0x3c294534	0.010331441
8	0xbd474a74	-0.04865499
9	0xbcdcee7a	-0.026969183
10	0x3d4bb527	0.049733307
11	0xbd0c8977	-0.034310784
12	0xbdc1c2ab	-0.09460958
13	0xbe980221	-0.29689124
14	0xbc89c4e9	-0.016817527
15	0x3d396641	0.045263533
16	0xbab3fd04	-0.0013732021
17	0xbe88824a	-0.26661903
18	0xbe360410	-0.17774987
19	0xbd229e3b	-0.03970168
20	0x3d3af50c	0.04564385
21	0x3d88d9b3	0.06682148
22	0xbd78bf5c	-0.06072937
23	0xbdc4dc0c	-0.09612283
24	0xbaa0aafd	-0.001225799
25	0xbe04f60a	-0.12984481
26	0x3d7c6f38	0.061629504
27	0xbddc99f5	-0.107715525
28	0x3cd76d07	0.026297105
29	0x3c96c184	0.018402822
30	0xbc090270	-0.008362398
31	0x3d9675e1	0.07346702
32	0xbe6201be	-0.22070977
33	0xbdb593ab	-0.08866056
34	0xbe7287ef	-0.23684667
35	0xbdd85f3f	-0.10565042
36	0x3cccad1a	0.024984885
37	0xbcafea88	-0.021474138
38	0x3db7fef2	0.08984174
39	0x3cd4f3b8	0.02599512
40	0x3ddbab4b	0.10726031
41	0x3d859229	0.065220185
42	0xbc45b307	-0.012066609
43	0xbb88dd10	-0.0041767433
44	0xbc343f1b	-0.011001374
45	0xbd87fe0d	-0.06640253
46	0xbc74d911	-0.014944331
47	0x3c351ff8	0.011054985
48	0xbe38d9e9	-0.18051876
49	0x3e011803	0.12606816
50	0x3ebcfc2a	0.36911136
51	0x3ec59ade	0.38594717
52	0x39aeef77	0.0003336628
53	0xbd11c4da	-0.035588123
54	0xbd65657e	-0.056004994
55	0x3d198421	0.037479524
56	0x3dfe0804	0.124038726
57	0x3e3dd442	0.18538001
58	0x3c1a185a	0.00940522
59	0x3d8abfd8	0.067748725
60	0xbc3b22e1	-0.01142189
61	0x3c772170	0.015083656
62	0x3c9f5dd6	0.019453924
63	0xbcc66420	-0.024217665
64	0x3ce98ab3	0.02850852
65	0x3d8da3d3	0.069160126
66	0x3ce21ce7	0.027601672
67	0xbc47a819	-0.012186074
68	0xbe3cc2a5	-0.18433626
69	0xbdacb61b	-0.08433171
70	0x3d482505	0.04886343
71	0x3d193f1b	0.037413698
72	0xbdd9bf4e	-0.106321916
73	0xbd6850b2	-0.056717582
74	0xbd40376b	-0.04692785
75	0xbdd52172	-0.1040677
76	0xbc79b97d	-0.015241978
77	0xbdce13c2	-0.10062362
78	0x3cbff089	0.023430126
79	0xbcca7b7c	-0.024717085
80	0xbd669e66	-0.056303404
81	0x3e240ac4	0.16019732
82	0xbcf762db	-0.030198505
83	0x3de5e04c	0.11224422
84	0xbeeac62a	-0.45854312
85	0xbd2372d9	-0.03990445
86	0xbe314f8b	-0.173155
87	0x3c1dda8b	0.009634624
88	0xbe305cbc	-0.17222875
89	0x3d423031	0.04740924
90	0x3cca371e	0.024684485
91	0xbd925c30	-0.071464896
92	0xbd0482a8	-0.032351166
93	0x3c3a460a	0.011369238
94	0x3d74c2a1	0.059755925
95	0xbce73cc7	-0.028227223
96	0xbcfd4fe5	-0.030921886
97	0xbd693c56	-0.056942306
98	0x3b154293	0.0022775277
99	0x3d051c87	0.03249791
100	0x3e732eca	0.23748317
101	0xbd4cd1fb	-0.05000494
102	0x3d1425b1	0.036168758
103	0x3bd91470	0.006624751
104	0xbe160458	-0.14650095
105	0xbd7d0ddb	-0.06178079
106	0x3d776602	0.060400017
107	0x3db6bf6e	0.08923231
108	0x3d42bb59	0.04754195
109	0x3d1add5f	0.037808772
110	0x3c323c85	0.010878687
111	0x3d50a61c	0.050939664
112	0x3c741804	0.014898304
113	0xbc6b0fc3	-0.01434702
114	0x3df0af19	0.11752147
115	0x3c28f8f7	0.010313264
116	0xbe041bad	-0.12901182
117	0xbdeeef78	-0.11666769
118	0xbde9cabd	-0.114156224
119	0x3c035e43	0.008018079
120	0xbcfac789	-0.030612724
121	0xbd0f9d26	-0.035061978
122	0xbcdfb8c4	-0.027309783
123	0x3bac429e	0.005256965
124	0x3d5ad45b	0.053425174
125	0x3d978de3	0.074001096
126	0x3ba55347	0.005045328
127	0x3ca186bf	0.019717572
128	0xbb85444c	-0.0040669795
129	0x3bacef04	0.0052775163
130	0x3da1075f	0.07862734
131	0x3d1aa56a	0.037755407
132	0x3dcf6826	0.101272866
133	0x3db54f10	0.088529706
134	0x3d49d272	0.049272962
135	0x3df1c148	0.118044436
136	0x3d64c2fa	0.055850007
137	0xbd64fb74	-0.055903867
138	0x3b830dcc	0.0039994475
139	0x3be50abf	0.0069898064
140	0xbc021870	-0.007940397
141	0xbd53d988	-0.051721126
142	0xbd81d813	-0.06340041
143	0x3e97f728	0.29680753
144	0xbd28c9e0	-0.041208148
145	0xbc92d680	-0.017924547
146	0xbcfe5654	-0.031047024
147	0x3d3b73f5	0.045764882
148	0x3d9db1c3	0.07699921
149	0x3cd08d80	0.025458097
150	0x3d3f75d6	0.046743236
151	0x3c59994c	0.013281178
152	0x3caef55c	0.02135723
153	0x3dd24e37	0.102688245
154	0xbd55f8df	-0.052239295
155	0xbd1af748	-0.037833482
156	0xbe1a6a84	-0.15079695
157	0xbc164a03	-0.009172919
158	0x3cee4667	0.029086305
159	0xbcf2dd63	-0.029646581
160	0x3d39cdf0	0.045362413
161	0xbc8f65df	-0.01750463
162	0x3d80206e	0.062561855
163	0xbb37eb97	-0.0028064006
164	0xbe6d9cda	-0.23204365
165	0xba85c165	-0.0010204731
166	0xbd5925f2	-0.053014703
167	0x3d09d73a	0.03365252
168	0xbdf7e7ee	-0.12104784
169	0x3d562056	0.05227693
170	0xbb089e0c	-0.0020846156
171	0xbdb52ae3	-0.088460706
172	0xbe2650d1	-0.16241767
173	0xbda3891d	-0.07985137
174	0xbe110e9f	-0.14165734
175	0xbdd75501	-0.1051426
176	0x3d34cf96	0.044143282
177	0x3a2161f1	0.0006156257
178	0x3d0edc23	0.034877907
179	0xbc4b86ec	-0.012422305
180	0xbd018621	-0.031622056
181	0xbbfe7fb2	-0.0077666873
182	0x3d0892f0	0.033343256
183	0xbc5a854b	-0.013337444
184	0x3d6ccaa8	0.057810456
185	0x3d931a76	0.071827814
186	0xbce94f7f	-0.02848029
187	0x3ccc0603	0.02490521
188	0x3d322438	0.043491572
189	0x3bdb3c71	0.006690555
190	0x3ce8b8d5	0.028408447
191	0x3cdb4f94	0.026771344
192	0xbc732a6e	-0.014841659
193	0x3c8f064e	0.017459061
194	0x3cea25d1	0.028582485
195	0x3b94a08b	0.00453574
196	0xbca9d12d	-0.020729626
197	0x3d82aa8a	0.06380184
198	0x3d887771	0.06663407
199	0xbc918b17	-0.017766519
200	0xbe1edcf4	-0.15513974
201	0x3c29607b	0.010337944
202	0x3c8466bd	0.01616227
203	0x3e2da406	0.16957101
204	0xbc1cfc0f	-0.00958158
205	0xbd82da9d	-0.063893534
206	0xbc9d7858	-0.019222423
207	0x3de08f62	0.10964848
208	0xbd706a1b	-0.05869494
209	0xbe922795	-0.28545824
210	0x3d6ad216	0.05732926
211	0xbd135f0d	-0.03597932
212	0xbc547f95	-0.012969871
213	0xbd7aec5f	-0.061260577
214	0x3d30a234	0.04312344
215	0x3d0a77de	0.03380572
216	0xbc9e8649	-0.019351142
217	0xbc920b01	-0.017827513
218	0x3d15f2c6	0.03660848
219	0x3c453be4	0.012038205
220	0x3d1dd4b9	0.038532946
221	0xbbbc7479	-0.0057511893
222	0x3c286bc2	0.010279598
223	0x3cf2b8f3	0.029629206
224	0xbca0e13f	-0.019638656
225	0xbc159f7c	-0.009132262
226	0x3db83e2a	0.08996232
227	0x3dd94c91	0.10610307
228	0x3d2592fc	0.04042338
229	0xbd3782cc	-0.044802472
230	0xbe0ec3b0	-0.13941836
231	0xbdbfc0f2	-0.09362973
232	0x3c4b32fc	0.012402292
233	0x3dc1eb70	0.09468734
234	0xbdf785bf	-0.12086057
235	0xbdc4885d	-0.09596322
236	0xbec00636	-0.3750474
237	0xbe89d4f1	-0.26920274
238	0xbe451500	-0.19246292
239	0x3df11477	0.117714815
240	0xbb2bf989	-0.0026241264
241	0x3d4e6ce3	0.05039681
242	0xbe220cf0	-0.15825248
243	0xbc811fec	-0.015762292
244	0x3c6fb563	0.014630648
245	0x3ded4b0e	0.11586581
246	0xbdfcb705	-0.12339596
247	0xbd975af2	-0.07390393
248	0xbd5bdaaf	-0.05367535
249	0x3dd51f82	0.104064
250	0xbd1ed567	-0.038777735
251	0xbd6ce904	-0.05783941
252	0x3da62463	0.08112409
253	0x3d4798d1	0.04872972
254	0xbd2d0864	-0.04224433
255	0xbd942c1a	-0.07234974

fc1.bias f4 [64]
0	0xbf930026	-1.148442
1	0xc01de6af	-2.4672048
2	0xbf9efc47	-1.2420739
3	0xbf0203bd	-0.50786954
4	0xbf2bb401	-0.6707154
5	0xbff374df	-1.9020041
6	0xbffa4f16	-1.9555385
7	0xc08ed293	-4.463205
8	0xbf7efa7a	-0.99600947
9	0xc0040f41	-2.063431
10	0x3fc8043d	1.5626293
11	0xbf8a3968	-1.0798769
12	0xbf8fdefb	-1.1239923
13	0xbff9bf40	-1.951149
14	0xbf9ff2e0	-1.2495995
15	0xc018eedb	-2.3895786
16	0xc02019a8	-2.501566
17	0xbf4d93a8	-0.8030343
18	0xbfe82bb9	-1.8138343
19	0xc00fbb9e	-2.2458262
20	0xbf71bceb	-0.9442889
21	0xc005fc2d	-2.0935166
22	0x3ec94128	0.39307523
23	0xbffa7569	-1.9567081
24	0xc0abcd9f	-5.36885
25	0xc007a2a3	-2.1193016
26	0xc017bb9e	-2.3708262
27	0xbef18bc6	-0.4717695
28	0xbfe8e553	-1.8194984
29	0xbff52889	-1.9152995
30	0xc0899990	-4.2999954
31	0xbfd0f843	-1.6325763
32	0xbf6f657c	-0.9351423
33	0xbfeb30d0	-1.8374271
34	0x4020936b	2.5089977
35	0xbe7b9c87	-0.24571429
36	0xbf867a7e	-1.0506132
37	0xbfe37d5c	-1.7772632
38	0xc038a501	-2.885071
39	0xbec2c1c4	-0.38038456
40	0xbf9a4095	-1.2050959
41	0xbf3b486a	-0.7315737
42	0xbf518296	-0.81839883
43	0xbfb73382	-1.4312594
44	0xbfdabdac	-1.7089133
45	0xbfb11870	-1.3835583
46	0xc003a8a1	-2.0571673
47	0xbfbf1faf	-1.4931544
48	0xbfbb3321	-1.4624978
49	0xbfa1df5a	-1.2646286
50	0x404885b7	3.1331613
51	0xc06fbf95	-3.7460682
52	0xbf44b075	-0.7683175
53	0xbfaf2341	-1.3682634
54	0xbfa66476	-1.2999408
55	0xbf8a3241	-1.0796586
56	0x3f7f5d21	0.9975148
57	0xbfeabdf0	-1.8339214
58	0xbfe80720	-1.8127174
59	0x401c9c31	2.4470332
60	0xc06669d0	-3.6002083
61	0x400f41f5	2.2384007
62	0xc01f6253	-2.4903762
63	0xbf886ee6	-1.0658844

output.weight f4 [1, 64]
0	0x3e81c1ff	0.2534332
1	0xbcd7acea	-0.026327569
2	0xbcc9daf2	-0.024640534
3	0xbcfa8ee3	-0.030585712
4	0x3e05a35d	0.130506
5	0x3d72ad92	0.05924756
6	0x3e221040	0.15826511
7	0xbda2407f	-0.07922458
8	0xbcde5ccd	-0.02714386
9	0xbd41f8a5	-0.047356267
10	0xbd86453d	-0.06556175
11	0x3e81c7c7	0.2534773
12	0xbdee07c7	-0.11622577
13	0x3e69dabc	0.22837347
14	0xbbedac4a	-0.0072532045
15	0x3d96a7f5	0.07356254
16	0x3ea7b9e8	0.32759023
17	0x3f0f219f	0.55910677
18	0x3e1340d7	0.14380203
19	0x3e6e7aa5	0.23288973
20	0xbd432702	-0.047644623
21	0x3e1bffc5	0.15234287
22	0xbda8dad5	-0.08244864
23	0x3cc71aa6	0.0243047
24	0x3e10a8a5	0.14126833
25	0x3e23201d	0.15930219
26	0xbd9caf4c	-0.07650623
27	0x3e40d3db	0.18830816
28	0x3d59f937	0.053216185
29	0xbdeeb469	-0.11655504
30	0xbc5a02f4	-0.013306368
31	0xbd13db4e	-0.036097817
32	0x3da60b61	0.08107639
33	0x3da82403	0.08209994
34	0x3d38996e	0.045068197
35	0x3d2f56fc	0.042807564
36	0x3dcadffa	0.099060014
37	0x3d1c2f00	0.03813076
38	0x3d8a264b	0.06745585
39	0xbd0c9be1	-0.034328345
40	0x3e154d96	0.14580378
41	0x3e63dcbe	0.22252175
42	0x3e022bf2	0.12712076
43	0x3d57cbc7	0.05268457
44	0xbdeafe25	-0.114742555
45	0xbdf78a49	-0.12086923
46	0x3e16736e	0.1469247
47	0x3d88f87c	0.0668802
48	0xbca6ed76	-0.020376902
49	0x3dce9d95	0.1008865
50	0x3dee1b44	0.11626294
51	0xbde20ff9	-0.11038203
52	0x3ecc9d3a	0.39963704
53	0xbbec7868	-0.007216502
54	0x3c6d57e2	0.014486285
55	0x3e1de030	0.15417552
56	0x3deeab8e	0.11653815
57	0x3cd190a2	0.025581662
58	0xbd267ec0	-0.040648222
59	0x3d76bc66	0.060238265
60	0x3bf22fd8	0.0073909573
61	0xbe1aecbd	-0.15129371
62	0x3d6ac907	0.05732062
63	0x3cd80828	0.026371077
