cnn_models/cnn_model_v0.pth (torch, 167229 bytes, 7 tensors)

conv1.weight f4 [32, 20, 3, 3]
00000000: 45b1 bac0 a7cc e23e 48d3 4fc0 78b9 9fbf
00000010: 0c64 9fbf 8ecd 8fc0 a6bd da3e 3aba 9fbd
00000020: 20d2 08bf 9531 913f 9514 39bf 6b5b f7c0
00000030: 6866 06c0 960f 23c0 ec1c 993f 37a6 1a40
00000040: 24a6 ccbe 4058 49bf 83a7 04be bb0c 4f3f
00000050: 3e51 9ebe e95c ce3f 0165 a1bf 9611 63be
00000060: e483 273f f838 0a40 1862 acbf 8d2a c6bf
00000070: fb1c 04c0 9a6f fac0 fb7b 31c0 522f c8bd
00000080: e2ae bdc0 c3ff 4ec0 4922 1ec0 aef1 153f
00000090: 95dc f0bf 70d2 bc3e 547e cd3f 5cdc 0540
000000a0: a723 25c0 a38b a0bf 9dfb 39bf f9ce 8b3f
000000b0: 3c49 27c0 4b33 1e3f a1e8 1840 3600 06bf
000000c0: af8a c4be 68fd 3ebf 28c0 9c3e 9eac 9440
000000d0: 501d 1740 0e34 613f b599 af3f a552 2a40
000000e0: 3813 10c0 98cd ce3f bafb 5cbf a73e 70c0
000000f0: 9f31 e3bf f207 14bf 1e6f a93e 8ad0 c23e
00000100: 6677 1c40 0a66 1440 5271 fbbf eb2b 54c0
00000110: fd8d 0f3f 04aa c43f 6401 a63f f296 4f40
00000120: bb17 43c0 d32f 4dc0 7056 8e3f 0d94 65c0
00000130: 9172 5040 3452 093f b3c8 b6bf 4edd 8ebe
00000140: d58f 18c0 05b0 01c0 b67f ad3e 22b6 e6bf
00000150: 2e28 843e 1a50 91bc 9373 b2c0 368f 4440
00000160: 9cf4 f5bf 051f ab3e a24e 6b3e 19a8 bfbf
00000170: 4555 86c0 5b42 18c0 884d 2c40 c109 8440
00000180: 813f b53e 1b51 4ebf afac b7bf ffad 53be
00000190: 2800 033f 6bcf 3bc0 7187 dfbf e44e c13f
000001a0: b5d2 0e3c f4e7 91c0 30c1 d73f aaf0 5640
000001b0: 7ef5 54bf 410a 32be 09d2 593e 30e7 68bf
000001c0: 3d84 46bd e3e3 093f 937d b6bf 35ff 3cbf
000001d0: 3746 2cbc c6f0 4bbf afe4 2dbf 8768 ffbf
000001e0: 64ed 81bf a85d 7ebf 7358 ebbf 7fa2 97be
000001f0: db23 c1bd 422b 33be 3156 52bf 8272 8cbf
00000200: b0ff 4bbf 52bf 67bf 0eda 46bf 26d9 d4be
00000210: 792c 84bf b099 46be 9c59 d93e f3e2 48be
00000220: e496 90be 2148 8b3e e853 81bf a41e b1be
00000230: e682 b5bc 30bd e0bf 1b1a 0fbf 0a5d 92be
00000240: a229 873f 56a3 873f b548 52c0 f923 8f3e
00000250: 5c2f c13e 2855 3ec0 9ac1 d0be 1ffe 12be
00000260: 4abd 1bbf 50ec 18be 4735 4bbd 26af 2cbe
00000270: 04e3 10bf 7c9f 15bf 6002 5d3b a88e 74bc
00000280: 42c2 ab3e daa7 8a3e 584d cabd 7817 203f
00000290: 6bb3 1bbf af12 ecbe 1577 23bf 6a2f 443e
000002a0: af0b ddbc 5362 fbbe 9b38 04bf f823 88be
000002b0: 7a8b 8abe 8baf cfbd bbb1 6c3f b88e ca3e
000002c0: 902c afbf 827b 87bf fd6d 3c3e 591e 6dbf
000002d0: f726 84bf 4687 1fc0 56e9 6fbe 7c26 1bbf
000002e0: 8f6d d0bf 7bf7 d3bf b23f b33f e62f dcc0
000002f0: bc3c 00c0 624c c8c0 63d0 9cbf d937 c7bf
00000300: 1f86 c2bf 1c7f 46c0 2e10 463f 3390 56c0
00000310: 3435 d53f 7095 193f 5ca2 21c0 df1f ffbf
00000320: 8579 873e 9176 6d3f 5e77 a3bf b707 20c0
00000330: 91cd 943f 22fd 8dc0 2d9d 613f 9283 b53f
00000340: a825 3ec0 5702 f33f a976 8dbf b825 1640
00000350: dfd7 e73f 1f00 aebf c6ab d5c0 c17d 803f
00000360: da40 0f40 a7c5 01c0 130f 1ec0 76f5 c7bf
00000370: 1b67 2bc0 6433 c43f 6855 59c0 a5d1 5a3f
00000380: e90c 8240 2f36 abc0 52e0 383f 7d76 1940
00000390: 14b3 4640 ba82 a8bf d7ee a93f e0d8 b2c0
000003a0: 3827 47c0 f501 de3f 63f6 b93f 9243 cac0
000003b0: f4fd 243f 94db 0440 34cf 163d c6cf ebbf
000003c0: e036 3e3e 8e69 92c0 60e2 673f b532 09bf
000003d0: d035 ce3f 9783 4440 ee4b 133f bcb1 023e
000003e0: d874 3ac0 4df2 3040 fe11 09c0 39ce 6340
000003f0: 6682 31bf bb0b 103f c69e 19c0 2844 34bf
-5.8341393 0.44296762 -3.2472706 -1.2478476 -1.2452407 -4.493842 0.42722815 -0.07799192
-0.53445625 1.1343256 -0.7229703 -7.7299094 -2.1000004 -2.5478263 1.1961951 2.416395
-0.39970505 -0.78650284 -0.12954526 0.808788 -0.30921358 1.6122104 -1.2608949 -0.22174677
0.65435624 2.159727 -1.3467436 -1.5481735 -2.0642688 -7.826123 -2.7731922 -0.09774651
-5.927598 -3.2343605 -2.4708426 0.585719 -1.8817316 0.368793 1.6054177 2.0915747
-2.580301 -1.2542614 -0.72649556 1.0922538 -2.6138449 0.61797017 2.3891985 -0.5234407
-0.38387057 -0.7460542 0.30615354 4.6460714 2.361164 0.87970054 1.3718783 2.6612942
-2.251173 1.6156492 -0.86321604 -3.753824 -1.7749518 -0.57824624 0.33092588 0.38049728
2.4447875 2.318728 -1.9643958 -3.3151805 0.5607603 1.5364385 1.2969174 3.243588
-3.0483234 -3.206044 1.1120129 -3.5871613 3.2569926 0.53641057 -1.4279999 -0.27903217
-2.3837788 -2.0263684 0.33886498 -1.8024333 0.25811905 -0.01773839 -5.576608 3.071241
-1.9215274 0.33422104 0.22979215 -1.4973174 -4.197909 -2.37905 2.6922321 4.1261907
0.35400012 -0.8059251 -1.4349574 -0.20671843 0.51172113 -2.9345348 -1.7463208 1.51022
0.008717229 -4.5595646 1.6855831 3.358439 -0.8318709 -0.17386724 0.21271528 -0.90977764
-0.048465956 0.5386335 -1.4257072 -0.73826915 -0.010514787 -0.79664266 -0.6792707 -1.9953774
-1.0150571 -0.9936166 -1.8386368 -0.29616162 -0.09430667 -0.1749697 -0.8216277 -1.0972445
-0.79687023 -0.90526307 -0.77676475 -0.4157192 -1.0326072 -0.19394565 0.4245118 -0.19617824
-0.2824012 0.27203467 -1.0103731 -0.3459369 -0.022157144 -1.7557735 -0.5589921 -0.28586608
1.055958 1.0596721 -3.2856877 0.27957132 0.37731445 -2.9739475 -0.40772706 -0.14354752
-0.6083571 -0.14933896 -0.049611356 -0.16863689 -0.565964 -0.5844648 0.003372334 -0.01492659
0.33546644 0.27081186 -0.098780334 0.6253581 -0.60820645 -0.46108004 -0.6385358 0.19158712
-0.02698311 -0.49098453 -0.51648873 -0.26589942 -0.27059537 -0.10140904 0.92458695 0.3956201
-1.3685474 -1.0584567 0.18401332 -0.9262443 -1.0324391 -2.4926314 -0.23428854 -0.606056
-1.6283435 -1.65599 1.4003813 -6.880847 -2.003707 -6.259324 -1.2251095 -1.5563918
-1.519718 -3.1015081 0.7736844 -3.3525512 1.6656861 0.5999365 -2.5255346 -1.9931601
0.264599 0.9275904 -1.2770803 -2.5004709 1.1625234 -4.43715 0.88130456 1.4180777
-2.9710484 1.8985089 -1.1051837 2.3460522 1.8112754 -1.3593787 -6.6772184 1.0038377
2.2383332 -2.0276887 -2.46967 -1.5621784 -2.678168 1.5328183 -3.3958378 0.8547614
4.064076 -5.350364 0.72217286 2.397857 3.10468 -1.3164895 1.3276013 -5.588974
-3.1117687 1.7344347 1.4528316 -6.3207483 0.6445 2.075902 0.036818698 -1.8422782
0.1857562 -4.575385 0.90579796 -0.53593 1.6110172 3.0705316 0.57537735 0.12763113
-2.9133816 2.7647889 -2.1417232 3.5594618 -0.693396 0.562679 -2.4003158 -0.704165

conv1.bias f4 [32]
00000000: 71fe 0ac0 85ae 2ac0 e09b 0cc0 70b8 b3bf
00000010: 8a28 f9bf 069d f0bf d22b eabf 355a edbf
00000020: 0e50 08c0 9800 1ac0 bbfe c5bf 7059 29c0
00000030: 70ae 5fbf e811 09c0 92b8 a4be 2bf6 37c0
00000040: 5f6d 9abf 1ea9 bfbf d481 42c0 ad50 07c0
00000050: d1b6 edbf 5ddf 13c0 1d5d ddbf 61b0 dfbf
00000060: 1dcf 19c0 a25e 3bc0 aea4 0dc0 df74 04c0
00000070: a50a b7bf fcfe 21c0 b109 d2bf b061 2fc0
-2.1717799 -2.6669018 -2.1970139 -1.4040661 -1.9465497 -1.879792 -1.8294623 -1.8543154
-2.1298862 -2.4062862 -1.5468363 -2.6460838 -0.87375546 -2.141718 -0.32172066 -2.8744
-1.2064627 -1.4973485 -3.039174 -2.114299 -1.8571416 -2.310508 -1.7294041 -1.7475702
-2.4032662 -2.927651 -2.2131763 -2.0696332 -1.4300123 -2.531188 -1.6409208 -2.7403374

conv2.weight f4 [64, 32, 3, 3]
00000000: a949 22bc d5d7 cc3e 4166 dcbe 0ec7 3d3e
00000010: d161 7c3f 9139 a9bf 083a a7bf 7d23 87be
00000020: bb0a 34bf 35ac da3d 4e47 aebe 2b9f 58bf
00000030: 4bc2 583e a82e 7fc0 8804 6fbe eddf abbf
00000040: 3685 d5bf 4b7f c13f d741 bfbf b0c2 57bf
00000050: b73b 373f 3fff d03e 5024 2fbf e164 50bf
00000060: 5aa7 0c3f e196 99bf 6511 cc3d 231f adbf
00000070: f333 25bf e932 2abe 56cd febd 9dc3 653f
00000080: 8bfa 14bf c49d 973d 1423 a8bf 0f84 7dbf
00000090: 47a8 cdbf c10a c1bf 0a59 01bf 3892 1fbf
000000a0: fd9d 7bbf 03ad 1bc0 0a94 3cbf 8cfe 543f
000000b0: f0bf 1abe 14c0 03c0 c36d 013f 386e 733e
000000c0: 88e3 623f b716 4dc0 2115 173e 7032 363e
000000d0: 8aed 4b3f 3816 20c0 f804 88bf 4288 323e
000000e0: 4e7e 5ebe 35ff e5bf f614 f0bf 621f 983f
000000f0: 41f5 5a3e d635 74bf 850a c1bf 5e4c a2be
00000100: b23e 9bbf 0b5b 933f 94d6 0fc0 fe5b 383d
00000110: 5b60 dc3f 2e9c 8d3f ed39 883f bbc0 c7bf
00000120: d499 edbf 3055 1ac0 22a8 84bf 485f 08bf
00000130: 4d8c b0bd 97a3 0bc0 2a37 08bf ce2d 1fbf
00000140: 09f9 31bf b49c 2fbe 090d dbbf 256b 383f
00000150: d3d8 9ebd a91d 4cbf c75a e63e 7d3a b1bf
00000160: 0e91 40be 42d0 01c0 990b 6c3f a955 0cc0
00000170: 66aa d43e 0a20 adbe bb79 f5be f874 8b3f
00000180: b839 1a3f 4e92 6abf 5d4c 0040 3bd4 abbf
00000190: 79ce 00c0 f6e0 86be 779b f1bf f7fb b73f
000001a0: 4441 93be 12f6 13c0 75e3 1dc0 c628 a33d
000001b0: 09da ea3c e52f 33bf 8433 9b3e 00de 45bf
000001c0: 36c5 13c0 a55e 78bf ef33 28bf d982 80bd
000001d0: 4e54 60be e8f5 08c0 c701 0bbd d178 18bf
000001e0: 323e 16c0 c421 c63d 18ac 3cbe c437 d1be
000001f0: 7598 283f 8ec3 99bf c0e1 b9bd a7a1 20bf
00000200: 5384 22bf 0947 d3bf 3af8 1bbe eb30 9e3e
00000210: 89b1 b2bf e72e 883e 652a edbd 3245 90be
00000220: a9ec ae3f d5e0 11bf 5246 24be cb87 21bf
00000230: 7aed db3f 99bf 08bf 6b62 13be 8f49 e73e
00000240: edfc b7bf e953 34c0 8f20 363f 6008 593f
00000250: 6163 93bf 990b a3bf 4422 623f e315 8dbe
00000260: 555e 023f 5411 eebe 4f1c ffbf 5a08 20bf
00000270: ba73 b8bf 88c7 8d3f 3c9f a4bf f70b c2bf
00000280: 67fb 5cbf 60b5 8a3f 16d3 c23d 7b95 48bf
00000290: fb1a cb3f 7b83 ffbd 9be9 19bf 8f97 5cbf
000002a0: e294 1dbf 9fae 21c0 732f 5a3e 649c 3dbf
000002b0: f4aa e2be c6b8 f53e 59b9 66bf 922d 913f
000002c0: ca26 bcbf d66f 25be f669 1f3e 0b51 973f
000002d0: 40dd b5be 2ca9 53bf 38f0 713e 1bb4 413f
000002e0: d62e 79bf bbd5 6bbf a730 5f3e f096 4e3f
000002f0: 6d4a 58bf 6ae9 5cbf 2022 e4bf 9b84 28bf
00000300: bc07 32bf 220c 22c0 3321 45c0 91e6 ad3e
00000310: a1e6 26c0 2657 b2bf c70b 47be 9025 ba3e
00000320: f867 50bf 3742 85bf f996 c3bd 1f92 a2bd
00000330: 1554 00c0 e3e2 273e 6675 503f b4d4 1ebf
00000340: ddf0 90bf 7a44 98bf 58f0 febe 0c77 37be
00000350: c427 14bf dad0 79bd 290a 3c3f be07 bdbf
00000360: 4e14 dbbd 4cf0 053f 6456 52bf c13e 1f3f
00000370: 4e6f 57bf 692a 5fbf 40d5 463f 0e05 55be
00000380: cd3c 06be dbe0 19bd 701e 1cbf 4c51 f13f
00000390: 5f11 40be 7217 32bf 1936 26bf e433 73bf
000003a0: 9bf5 92bf 5641 923f 6fb4 ea3e e91b ea3e
000003b0: bf1c e8bf a352 443e 647a 42be b238 323f
000003c0: 9e0a 15be 8005 273f af0e c4bd 7f1c 5ebf
000003d0: a54e e2bf 1854 a03f 22b4 e03e 4b2e abbf
000003e0: 1170 0940 d2f0 703f affc 873e 9f28 7bbf
000003f0: d9f2 f4bf fccc a1be 131f 3ec0 2926 be3e
-0.009905257 0.40008417 -0.43046764 0.18532965 0.98586756 -1.3220693 -1.3064585 -0.26394263
-0.70328873 0.10677377 -0.34038776 -0.8461787 0.21167867 -3.9872227 -0.23341572 -1.3427712
-1.6681278 1.5116972 -1.4941968 -0.84281445 0.7157549 0.40819737 -0.68414783 -0.8140393
0.5494286 -1.199917 0.09964255 -1.3525127 -0.64532393 -0.16620983 -0.124415085 0.8975161
-0.581948 0.07403138 -1.3135705 -0.9902963 -1.6066979 -1.5081407 -0.5052649 -0.6233249
-0.98287946 -2.4324348 -0.7366339 0.8320091 -0.15112281 -2.0585985 0.5055811 0.23772514
0.88628435 -3.2045114 0.14754154 0.17792678 0.7965933 -2.5013561 -1.0626516 0.1743479
-0.21727869 -1.7968508 -1.8756397 1.1884577 0.2138262 -0.9539465 -1.5081335 -0.3169889
-1.2128508 1.1512159 -2.2474718 0.045009606 1.7216905 1.1063287 1.0642678 -1.5605692
-1.856257 -2.4114494 -1.036381 -0.5327039 -0.0862051 -2.1818597 -0.53209174 -0.6217927
-0.6952062 -0.17149621 -1.7113353 0.7203849 -0.077562 -0.7973276 0.44991133 -1.3845974
-0.18805334 -2.028336 0.92205197 -2.1927283 0.41536254 -0.33813506 -0.47944435 1.0895071
0.6024432 -0.91629493 2.0046608 -1.3424143 -2.012602 -0.26343507 -1.8875569 1.4373769
-0.2876073 -2.311894 -2.4670079 0.07966761 0.02866842 -0.69994956 0.3031274 -0.7729187
-2.3089118 -0.97019416 -0.65704244 -0.06274957 -0.2190716 -2.140009 -0.033937242 -0.5955935
-2.347546 0.09674409 -0.18425024 -0.40862858 0.6585763 -1.2012804 -0.090762615 -0.6274666
-0.6348316 -1.6506053 -0.1523141 0.30896696 -1.396043 0.26598284 -0.11580352 -0.28177792
1.3665973 -0.5698369 -0.1604245 -0.6309783 1.7181847 -0.53417355 -0.14393012 0.45173308
-1.4374062 -2.8176215 0.7114343 0.84778404 -1.1514703 -1.2737914 0.88333535 -0.2755576
0.5092519 -0.46497595 -1.9930514 -0.62512743 -1.4410317 1.1076517 -1.2861094 -1.5159901
-0.8632111 1.0836601 0.09512918 -0.7835309 1.5867609 -0.1247625 -0.6012208 -0.8616876
-0.615553 -2.526283 0.21307163 -0.7406676 -0.44271052 0.47992533 -0.9012657 1.1342032
-1.4699337 -0.16155943 0.15567765 1.1821607 -0.35520363 -0.8268001 0.23626792 0.75665444
-0.9733709 -0.92123 0.21795903 0.8069906 -0.84488565 -0.8629366 -1.7822914 -0.6582734
-0.6954305 -2.5319905 -3.0801513 0.3396497 -2.6078265 -1.3932846 -0.19438086 0.36356783
-0.81408644 -1.0410832 -0.0955028 -0.07938027 -2.005132 0.16395144 0.81429136 -0.6204331
-1.1323506 -1.1895897 -0.49792743 -0.17916507 -0.5787318 -0.060990192 0.73453003 -1.4767988
-0.10697232 0.5231979 -0.8216307 0.6220513 -0.8415421 -0.8717409 0.77669144 -0.2080271
-0.13109131 -0.037567955 -0.60983944 1.8852935 -0.18756627 -0.69567025 -0.64926296 -0.95001054
-1.1481203 1.1426189 0.45840785 0.4572442 -1.8133773 0.19172148 -0.18992001 0.6961776
-0.14554831 0.6524277 -0.09573113 -0.8676223 -1.768025 1.2525663 0.4388743 -1.3373502
2.147465 0.9411746 0.2655997 -0.9810886 -1.9136611 -0.31601703 -2.9706466 0.3713849

conv2.bias f4 [64]
00000000: 9c80 1ec0 6b5a 06bf 40fe 39be 388d 2ac0
00000010: d0c3 7fbf c88d 8cbf 222c 90be 936f 99be
00000020: 0501 cabf bc8c f1bf d8a3 0cc0 a8b4 08c0
00000030: 48ad fabf c6aa 65be 04c1 c3be 28ad d4be
00000040: f2ad 2bc0 fe47 8bbf 01a1 abbe df00 24c0
00000050: 7920 50bf 4201 05bf 964b f9be 2cc7 29be
00000060: c497 2cbf 9514 68be 6094 8fbe 40c6 34c0
00000070: 047f 51bf f0cd 28bf 3171 a4bf 55eb 00bf
00000080: 43d7 c0bf 60d6 debf 74a5 97be e84a e1bf
00000090: 0c63 2fc0 bf43 18bf 3b27 f4bf 8867 0bbf
000000a0: c9aa e9bf 435d c2be 21ad 22c0 5a33 24be
000000b0: 6c93 bcbe d7ca a3be 3280 c8bf 6801 85bf
000000c0: 5455 86bf 64fc d3bf 3a4a f7bf e7f6 f0bf
000000d0: 99fd 2dc0 01a3 adbf f9f8 5cbe 63b4 c3be
000000e0: a268 83be 84b6 62bf 7434 93be e17d 40bf
000000f0: 7eef 87be ea07 42bf d863 acbf 0bfa 12c0
-2.4765997 -0.52481717 -0.18163395 -2.6648693 -0.9990816 -1.0980768 -0.2815867 -0.29967937
-1.5781561 -1.8871074 -2.1975002 -2.1360264 -1.9584131 -0.22428426 -0.38233197 -0.41538358
-2.6824918 -1.0881345 -0.33521274 -2.5625532 -0.8129955 -0.51955044 -0.4869048 -0.16579884
-0.67419076 -0.22664101 -0.2804289 -2.8246002 -0.81834435 -0.65939236 -1.2847043 -0.5035909
-1.5065693 -1.7409172 -0.29618418 -1.7600985 -2.7404203 -0.5947837 -1.9074472 -0.5445485
-1.8255244 -0.37961778 -2.541817 -0.16035214 -0.36831224 -0.31990692 -1.5664122 -1.0391054
-1.049479 -1.6561399 -1.9319527 -1.8825349 -2.7186034 -1.356537 -0.2157935 -0.38223562
-0.25665766 -0.88559747 -0.28750956 -0.75192076 -0.26549906 -0.75793326 -1.346797 -2.2965114

fc1.weight f4 [64, 257]
00000000: 1bf8 5cbe b3f6 933e 4e28 17bd 10cc 703d
00000010: 8dc0 a2bd 1ff1 5c3e 6649 41bd bd0e 4bbe
00000020: c06d fe3b 40a5 b73d 8e86 7f3d 86bd 793a
00000030: 7901 e7be 257d 0f3e 65a3 1a3e baa6 ac3d
00000040: 117e 093f 16b8 3d3e 936a 07be c08f dcbd
00000050: 9202 693b d07a 32be 691f 4a3d c21b 253d
00000060: 6632 bfbd 7565 113d 2e2a 1fba ed82 5c3d
00000070: 44eb fd3d 897f 16be f7c4 0abe 1a35 3b3c
00000080: 119a 11be 37cd cfbd dd47 893c 4d4c 4c3e
00000090: a20f f53c b8be 183c 7986 b33d 620d 163e
000000a0: cce8 753e 4697 b2be cac7 c8bd 5386 0e3e
000000b0: b631 1ebd 2f8e c7bd e3fe bb3c e1c0 71bc
000000c0: 051f 3c3d 7e1d 20be 97ba 9ebd ba40 6c3d
000000d0: ab83 183b b42a 14bd afb4 5ebc 7157 a33d
000000e0: b5f1 673b 5f5c a93d 7439 1bbe 9888 96bd
000000f0: 0512 2dbe e927 8e3e b8a8 3ebd 0bc9 063d
00000100: 2dba 1ebf f4fc 89be 6b9f 80bd d216 1d3e
00000110: fa90 943d 6762 333d 4099 b73d 748e 4e3d
00000120: e7b4 1837 cc43 883a fddf 78bd 0d79 ac3c
00000130: de53 46bb a229 13be 89ee 78bd d8cf e3ba
00000140: 9820 a4bd 15ca 4ebe f8bf 1a3e 0bc7 093d
00000150: eee1 28be 671b 0abd 3b15 5d3d c396 d43d
00000160: b506 2c3d d4d3 913d d65e a3bc 4eff 2ebd
00000170: 204f 4ebd 82b5 89bc 3574 bebc fe4b 313c
00000180: e2e8 8e3e 83d2 b63c 2423 80be f84e c8bd
00000190: a652 c13b d09a 72bc e1ea 513d 2894 e7bc
000001a0: 393e 1a3c 027d b13d 50f7 7bbc c21c 903d
000001b0: 9f22 95be 0778 21bd 51a6 babc ddbe 283c
000001c0: 9f76 023e 35d1 eb3c e9eb dabd c836 50bd
000001d0: a455 203d 59ea 32bd 7fc4 8abd 731e 93bd
000001e0: 237e c9be fe82 f2bc b47e 243b cb9e 34be
000001f0: e199 303d 71e6 21bd 7cd9 043c 86d4 24bd
00000200: ee85 74bc 7c86 afbe 5ee8 56be f52b 173c
00000210: 21fa 4abd f4d3 963d d8df 2e3e 1fb5 de3d
00000220: a871 dcbc 06b8 983b 1d1b 7e3d f132 333c
00000230: 6a91 53be 3c7e 1dbe c446 413d fd02 6c3d
00000240: 4563 673e 09e3 a43d dc45 443e dd57 76bc
00000250: dbe2 94bd 1e7a 84bd f7dc d0bd a00b 523d
00000260: c425 fbbe cde6 0bbd 0198 47bf 13a7 e3be
00000270: d9b6 293d 1f6b 373d 3262 de3c b39e 323d
00000280: 551e 3cbf 011b 48bf 6146 74bf 6f51 67bf
00000290: d57f 833d 1aa1 4b3d eecf bebc f956 0c3d
000002a0: 56f5 693e 0058 dfbe 25d8 adbe 44ef 8cbe
000002b0: 6dbb 3e3d 5fdf a6bc ab94 7fbd 3ca2 933c
000002c0: fa44 0abd cd5c be3c 8062 423d 83e9 973d
000002d0: c58b 0ebe be9c bbbd 1b93 afbd 6b89 7ebd
000002e0: 25cb 6cbe f20e b2be aa6a dabe 7a7f 243d
000002f0: 1eda babe 1295 8fbe 2579 783e 4990 17be
00000300: a6d9 95bd 12f1 f83c e391 9bbc 0e26 563c
00000310: 1f03 1a3c 473c 82bd 3335 66be f900 e5be
00000320: 37c5 5f3d 680b e73c 7f0d b73d c8f8 a53d
00000330: fd5c 3fbe 046e acbe 054f 2c3c c4e7 c93d
00000340: 5903 acbb 1da1 bf3e 2f8f d4bb c4b7 283e
00000350: c71c a73d 9094 ce3d 2ecd d2bd 55b9 553d
00000360: 4e91 89bd d7cc 3f3d 6578 bfbc 599b 2ebd
00000370: ac31 95bb f9a2 8a3c 636b 203e 1d12 73bc
00000380: a593 083d e509 45bc a582 f3bc 84fa 40bc
00000390: 735c f3bd d73e c1bd ec6c 8abb 7dea 14bd
000003a0: 850c 31bd 0f68 393d 6ed9 f5bc f5e3 e6b9
000003b0: d0b3 143c 5f87 e4bd 5859 abbd 87e9 833b
000003c0: f910 91bb 960d ba3d 0bd6 6d3d 1fc9 073d
000003d0: 06ba 393d 71b0 4d3c 5fb7 a33d 58c7 c5bb
000003e0: 0b2c 9cbe 110a a2be e5b5 cabd f8f2 3cbe
000003f0: 65d3 c2bc b410 05bf c030 58bb b6f9 01be
-0.2157902 0.28899154 -0.036903672 0.05878836 -0.079468824 0.21576355 -0.04718914 -0.19829841
0.007764548 0.08967066 0.06238418 0.00095268374 -0.4511831 0.14012583 0.15101393 0.08430238
0.5370799 0.18527254 -0.13224249 -0.10769606 0.003555451 -0.17429662 0.04934636 0.040309675
-0.093357846 0.035497148 -0.0006071654 0.053835798 0.12398389 -0.14697088 -0.13551699 0.011426235
-0.14218928 -0.101465635 0.0167579 0.19950981 0.02991468 0.009322815 0.08765883 0.14653543
0.24014586 -0.34881037 -0.09803732 0.13918428 -0.038621627 -0.09743916 0.022948688 -0.014755459
0.04592802 -0.1563625 -0.07750433 0.057678916 0.002327184 -0.036173537 -0.013592883 0.079756625
0.0035391871 0.082695715 -0.15158635 -0.07350272 -0.16901405 0.27764824 -0.04654762 0.032906573
-0.6200283 -0.269508 -0.062804066 0.15340737 0.072542146 0.043795016 0.08964777 0.050428823
9.102026e-06 0.0010396182 -0.060760487 0.021053815 -0.003026239 -0.1437135 -0.06077436 -0.0017380668
-0.08014029 -0.20194276 0.15112293 0.033637088 -0.16492435 -0.03371754 0.053975325 0.10380318
0.041998584 0.07120481 -0.019942682 -0.042723946 -0.05036843 -0.016810182 -0.023248771 0.010821341
0.2791205 0.022317177 -0.2502681 -0.09780687 0.005899745 -0.014807418 0.05124939 -0.028268889
0.009414249 0.086664215 -0.015378788 0.07036735 -0.29127976 -0.039421108 -0.022784384 0.010299412
0.12740563 0.028786281 -0.106895275 -0.050833493 0.039144173 -0.043680523 -0.0677576 -0.07183542
-0.39354047 -0.029603478 0.0025099935 -0.176387 0.0431155 -0.039526407 0.008108493 -0.04024174
-0.014924509 -0.3428229 -0.20987079 0.009226789 -0.049554948 0.073646456 0.17077577 0.1087439
-0.026909664 0.004660609 0.062037576 0.010937438 -0.2066094 -0.15380186 0.047186628 0.057620037
0.22596462 0.08051116 0.19167274 -0.015035597 -0.07269832 -0.064686045 -0.10198396 0.051280618
-0.4905225 -0.034155656 -0.77966315 -0.44463405 0.041434143 0.044779893 0.027146433 0.04360838
-0.73483783 -0.78166205 -0.9541989 -0.9035863 0.064208664 0.049714185 -0.023292508 0.03426263
0.22847494 -0.43621826 -0.33953968 -0.27526295 0.046565462 -0.020370184 -0.06239764 0.018021695
-0.033757187 0.02323761 0.04745722 0.07417586 -0.13920505 -0.091607556 -0.0857298 -0.06214277
-0.23124368 -0.34777027 -0.42659503 0.040160634 -0.36494535 -0.2804342 0.24264963 -0.14801134
-0.07316904 0.030388389 -0.018990463 0.013070596 0.009400158 -0.06359153 -0.22481231 -0.44727305
0.054631438 0.028203681 0.08938121 0.08104092 -0.18687816 -0.33677685 0.010516887 0.09858659
-0.0052494225 0.37427607 -0.0064867954 0.16476351 0.08159786 0.1008693 -0.10293041 0.0521787
-0.06717168 0.04682621 -0.023372838 -0.04262862 -0.0045530405 0.016923415 0.15665965 -0.0148358615
0.03334393 -0.012026285 -0.029725382 -0.011778478 -0.11882868 -0.09435814 -0.0042244103 -0.036356438
-0.04322483 0.045265254 -0.030010905 -0.0004403886 0.009076074 -0.111586325 -0.0836665 0.0040256414
-0.004427072 0.090846226 0.058065455 0.03315079 0.04534342 0.012554274 0.0799396 -0.0060357265
-0.30502352 -0.31648305 -0.09897975 -0.1845206 -0.023782441 -0.5197861 -0.0032988042 -0.12692913

fc1.bias f4 [64]
00000000: 221e 0fc0 1d22 f23f 6283 0bc0 e0b6 b2bf
00000010: cadb f8bf ae7a 26c0 bd76 3ec0 1eef 09c0
00000020: c8df 03c0 5cb2 13c0 ed20 17c0 ec08 d4bf
00000030: bf1f 2ec0 28bb f8be 5636 2e40 e50d 72bf
00000040: 0f28 32c0 f38d 07c0 5cb4 0bc0 7cf2 93c0
00000050: 52aa 0fc0 62d2 4ac0 9634 21c0 c400 7dc0
00000060: 9075 1ec0 939a 5cc0 28a9 40c0 edd8 0a40
00000070: 17a7 0bc0 6890 1bc0 200c a2c0 880d 22c0
00000080: 0504 a3bf 3fea 0bc0 a423 86bf de98 2fc0
00000090: 85ab 1dc0 0a7a 10c0 db80 7bc0 aacc e2bf
000000a0: 8076 adbf a270 6cbf 1002 fdbe a0a6 4bc0
000000b0: 78f9 b7c0 ef18 1fc0 ac11 33c0 0126 3ac0
000000c0: 5e33 34c0 cf2e f4bf 7c4c cabf 27c1 d43f
000000d0: eeca 703e 5a95 a2c0 a691 36c0 874e 36c0
000000e0: a000 67c0 90d9 debf c5be 51c0 147d 41c0
000000f0: 213f 3dc0 6670 1ac0 5886 24c0 f288 6ec0
-2.2362142 1.891666 -2.179894 -1.3962059 -1.9442074 -2.6012378 -2.9759972 -2.1552196
-2.0605335 -2.3077612 -2.3613846 -1.6565223 -2.7206876 -0.4858029 2.7220664 -0.9455245
-2.783695 -2.118039 -2.1828833 -4.62335 -2.2447705 -3.1690907 -2.5188346 -3.9531717
-2.4759254 -3.4469345 -3.0103245 2.16949 -2.1820734 -2.4306889 -5.06398 -2.532076
-1.2735602 -2.1861722 -1.0479627 -2.7437053 -2.4635937 -2.2574487 -3.9297397 -1.7718709
-1.3551788 -0.92359364 -0.49415636 -3.182045 -5.7492027 -2.4858968 -2.7979536 -2.9085696
-2.8156352 -1.9076785 -1.5804591 1.6621445 0.23514912 -5.0807314 -2.8526397 -2.848543
-3.6094131 -1.7410145 -3.2772686 -3.0232592 -2.956978 -2.4131103 -2.5706997 -3.7271085

output.weight f4 [1, 64]
00000000: 17e7 ddbd 107e a7bd ec77 193e 4355 7d3d
00000010: e9f0 213e bddd 763d 9ea5 c7bd 781e e33d
00000020: ec74 1e3e 29b2 443d 482f b0bd 756e 1bbd
00000030: 9068 babd 5b71 18bd 68ca 273e d9c0 ebbd
00000040: f2f2 953d f425 01be d7e3 1bbe 180f f43d
00000050: a52f 1e3e 873f d0bd b781 a13d 52d8 a43c
00000060: e0f9 86bd 8add 1dbe b15b 203d 90ba 9dbd
00000070: dc25 a43b 1b04 913c 6e3b e33c edbf 753d
00000080: f593 9c3d dc2d 033e a007 f53c e6f1 903d
00000090: 6082 5d3d 255c b9bd 489c aebd 572b 78bd
000000a0: 3b19 54bd a1aa 293e 6f6a 083d 2bc3 c6bd
000000b0: d74c da3d 5143 093d 0026 84be 429f 1a3a
000000c0: 723c d33d 96b2 19bd 84ce b2bd 677a 10be
000000d0: c2c0 72bd 1946 79bd ac33 043e b568 2a3e
000000e0: 2da7 dcbb 2e1e bbba 8164 533c 6135 3f3c
000000f0: 355c c83d 3481 8fbc c1c3 1e3e 161b 05be
-0.108350925 -0.081783414 0.14987153 0.06184889 0.15814556 0.06027006 -0.09748386 0.11089796
0.1547429 0.04802147 -0.08602768 -0.037947137 -0.09101975 -0.03721748 0.16385806 -0.11511392
0.07321729 -0.12612134 -0.15223633 0.119169414 0.15447862 -0.10168367 0.07886069 0.02012268
-0.065906286 -0.15416542 0.039149944 -0.077015996 0.005009396 0.017702153 0.0277383 0.059997488
0.07645408 0.12810463 0.029910862 0.070773885 0.054079413 -0.09050778 -0.08525902 -0.060588207
-0.051781874 0.16568996 0.033304628 -0.09705194 0.10659187 0.033511464 -0.25810242 0.0005898365
0.103142634 -0.03752383 -0.08730796 -0.14109193 -0.05926586 -0.060857866 0.12910336 0.16641505
-0.006733796 -0.0014275962 0.01290238 0.011670441 0.09783212 -0.017517664 0.15504362 -0.12998614
